task4/model.ckpt (torch, 250887 bytes, 10 tensors)

conv1.weight f4 [6, 3, 5, 5]
000000 42 a9 c6 3e df c0 d6 bd db 11 4e be 32 53 0d 3b
       0.38801008 -0.10486006 -0.20123999 0.002156448
000010 1d 19 b6 3c eb 5a 8d 3d 85 a9 de be 26 e6 3b be
       0.022228772 0.06902107 -0.43488708 -0.18349513
000020 23 df 17 3e 64 24 bf 3d 21 ab 77 be 44 56 f6 be
       0.14831214 0.09333113 -0.24186374 -0.4811269
000030 d3 3e a3 ba 83 b4 94 3e 7a a9 15 3d 39 52 a7 be
       -0.0012454636 0.2904397 0.03653858 -0.32679918
000040 e3 df e8 bd ea 3f b2 3e f3 9c bd 3e 16 74 bf 3c
       -0.11370828 0.34814388 0.37033805 0.023370784
000050 f9 14 35 bd 8b 38 e5 3d 96 88 de 3e 32 37 45 3e
       -0.044209454 0.11192425 0.43463582 0.19259337
000060 60 49 65 bd b6 6a 66 3e ce 30 6d be c3 ff ca bd
       -0.05597818 0.22501644 -0.23163149 -0.09912064
000070 97 7d 2a be 43 1d 6f 3d 37 65 06 bc b9 01 ed be
       -0.16649471 0.058377516 -0.008202842 -0.46290377
000080 b6 08 62 be f1 af c7 3d c1 29 02 3e e7 db 0b be
       -0.22073635 0.09750355 0.1271124 -0.13658105
000090 9e 42 01 bf de 57 34 3d d6 b2 9c 3e 93 bf e5 3d
       -0.50492275 0.04402911 0.3060519 0.112181805
0000a0 95 ef cd be 6e 31 e6 bd 62 cb 5b 3e fe 91 b7 3e
       -0.4022185 -0.11239897 0.21464303 0.3585357
0000b0 3e 6e ec bd 60 b3 40 3d 12 16 97 3d eb f6 6b 3e
       -0.115444645 0.047046065 0.073772565 0.2304341
0000c0 2f 4e 48 bc 08 b7 fc bd 0d 70 81 3e 98 56 3b be
       -0.012225672 -0.12339598 0.252808 -0.18294752
0000d0 af 84 1b be be f9 5f 3d 85 cd 8b bc 0d b3 b4 bc
       -0.15187334 0.054681532 -0.017065773 -0.022058034
0000e0 eb 10 9e be 07 84 78 be fb df 4c 3e 83 4e 9d 3d
       -0.30872282 -0.24269114 0.20007317 0.076809905
0000f0 7f a4 92 be 54 52 b5 be fa bd da 3d 98 a7 b8 3e
       -0.28641126 -0.35414374 0.106807664 0.36065364
000100 59 38 0b 3e ab 0e ae be e3 eb c2 bd 4f d8 d1 3e
       0.13595714 -0.33995566 -0.09517648 0.40985343
000110 15 3d 95 3e 34 90 a5 3d d6 16 52 3c ba fd 7a 3e
       0.29148164 0.08084145 0.012822827 0.24510852
000120 ff fe 8c 3e 38 f6 81 3d 87 97 e8 bd 32 99 4b 3e
       0.27538297 0.063457906 -0.113570265 0.19882658
000130 5a 89 21 3e d6 ef af 3e 69 b3 80 3e 32 84 d0 3d
       0.15775052 0.34362668 0.2513688 0.10181464
000140 65 e2 74 3e 0b ba 85 3e fd 62 1c 3e 8b 3e 7a 3e
       0.23914488 0.26118502 0.15272136 0.24437921
000150 27 ad 58 3e 7e 0a 9a 3e cd 9a 31 3e 52 d4 7c 3d
       0.21159802 0.3008613 0.17344208 0.061725922
000160 da fd 69 3e f2 9e 6e 3e 37 9e 0d 3e b6 4a b5 3d
       0.22850743 0.2330282 0.13829885 0.088521406
000170 a7 65 84 3d 25 3c 99 bc 7d ba 01 bd 1e 86 c0 3d
       0.06464701 -0.018705437 -0.03167199 0.09400581
000180 81 71 5d 3d ef 4a a7 bc 8c 46 19 be f8 e6 21 be
       0.054063324 -0.020421473 -0.14968318 -0.15810764
000190 fe 64 87 be 06 08 b1 be d4 22 2f be b6 9c cc bd
       -0.26444238 -0.34576434 -0.1710313 -0.09990828
0001a0 04 de c8 bc bb 0b b6 be 93 be e8 be e5 48 ad be
       -0.024519928 -0.35555825 -0.45457897 -0.33844677
0001b0 b3 41 2e bd ae 41 1a be 92 85 4b be a6 0d 8a be
       -0.042543124 -0.15064117 -0.19875172 -0.26963538
0001c0 fd f3 e9 be ca f0 35 be c0 86 be bd 66 b0 07 bc
       -0.4569396 -0.17767635 -0.09303045 -0.008281803
0001d0 f3 d0 45 be e2 9f ea be 58 a4 8b be f2 ef 73 bd
       -0.19317989 -0.45825106 -0.27273822 -0.059555
0001e0 89 ae aa 3e d2 52 a0 3d dc 63 85 be c5 93 9a be
       0.33336285 0.07828297 -0.2605275 -0.30190864
0001f0 35 33 67 be 1c 11 a4 bd cb 01 f4 3c 37 71 95 bc
       -0.22578128 -0.08011076 0.029786011 -0.018242462
000200 cf ec 4b 3e 9c d0 59 3e 74 98 ed bd 5f a2 da bd
       0.19914554 0.21270984 -0.11601344 -0.10675501
000210 8e b9 44 bd 38 b6 b5 3b 71 87 0c 3e fd 24 27 3e
       -0.04802852 0.005545404 0.13723542 0.16322704
000220 db 00 17 be f5 d9 f7 bc 64 22 55 bd 96 6a 2b 3e
       -0.1474642 -0.030255297 -0.05203475 0.16739878
000230 73 f5 8f 3e d7 0b 94 bd 8d b2 3a be b0 74 19 be
       0.2811695 -0.07228821 -0.18232174 -0.14985919
000240 94 d7 e8 3d 92 c4 0a 3f c5 e0 9d 3e 9e 19 1c bd
       0.11369243 0.5420619 0.30835548 -0.038110368
000250 65 29 b3 bd 11 d8 3f 3c 89 52 82 bc b0 b6 2e be
       -0.0874813 0.011709229 -0.015908496 -0.17061877
000260 be f4 b9 3d 05 a7 d4 3b 23 c6 f5 3d 53 f4 0c be
       0.09079884 0.006489637 0.12000682 -0.13765077
000270 bf 02 95 be be c4 e1 bd 98 33 97 bd ee fa 58 3d
       -0.29103658 -0.11023854 -0.073828876 0.05297368
000280 fb cf 84 be 9c 28 39 be 11 f3 cf 3c e2 6e 9b bc
       -0.25939927 -0.18081897 0.025384458 -0.018973771
000290 04 46 60 3b 3a 37 79 be f1 37 60 be 6f c7 a9 bd
       0.003422142 -0.24337474 -0.2189634 -0.08289992
0002a0 fc a8 9c bd 2c 54 0e be a2 2c 1b bd e0 2b 4f bd
       -0.07649419 -0.13899297 -0.037884362 -0.05057895
0002b0 32 32 3d be ed af 8a bd 97 dc 8e 3d 58 b4 85 3d
       -0.18476179 -0.067718364 0.06975668 0.065285385
0002c0 f2 c8 cb bd 6b 56 d8 3d 85 bb 0e 3d 55 e0 a3 3d
       -0.09950437 0.10563358 0.0348468 0.08001772
0002d0 8a 24 1e be c6 07 12 bc d4 60 a5 bb 13 38 2c bd
       -0.15443626 -0.008912986 -0.005046943 -0.042045664
0002e0 7d a5 7d bc 60 d3 22 bd 0f 46 43 be 97 ea db 3d
       -0.01548135 -0.039752364 -0.19069694 0.10738104
0002f0 ea 97 b3 3d a5 58 93 bd 28 5d 80 bd 7e a4 12 be
       0.0876921 -0.07194642 -0.06267768 -0.14320561
000300 db a5 9f bb 9b 5a c1 3c 88 81 99 bc e9 d5 b0 3d
       -0.0048720664 0.023602774 -0.018738523 0.0863455
000310 99 5a 05 be 45 f0 4a bd 45 0d 64 3d b9 e9 96 bc
       -0.13022842 -0.049545545 0.055676717 -0.018421995
000320 99 de 3b 3d a2 e6 03 3e e6 3b 5d 3d dd cc c4 bd
       0.045866583 0.12880948 0.0540122 -0.09609387
000330 73 4a e1 bc 4b ba 45 3e 07 7f 71 3c 36 99 24 3c
       -0.02750132 0.19309346 0.014739758 0.010046294
000340 f2 ac 3b be ec ab 23 bd 65 fd 4e 3e 30 67 6c bd
       -0.18327692 -0.03995888 0.2021385 -0.057715595
000350 1b 05 94 3d 57 4f af bd e7 23 8d 3a ff 57 27 3e
       0.07227536 -0.08560055 0.0010768146 0.16342162
000360 7f ef cb 3d c3 86 02 3d a5 ba 13 be db 18 12 bc
       0.0995779 0.0318668 -0.14426668 -0.008917059
000370 40 11 02 3e b0 52 58 bc 45 8c 1b be 41 5a 39 be
       0.12701893 -0.013203308 -0.15190227 -0.18100835
000380 56 fb ab bd 00 82 48 bb db 25 8c bd 26 22 28 bd
       -0.08397548 -0.0030595064 -0.06843158 -0.04104819
000390 a3 23 aa bd 3a d6 b4 3d 74 8a 48 3c 2a 6b 7e be
       -0.083075784 0.08829923 0.012240041 -0.24845567
0003a0 85 29 79 be 83 ad 5e be ff 91 de bd 97 d7 18 be
       -0.24332245 -0.21745877 -0.1086769 -0.14925991
0003b0 8d a6 72 be 22 d3 88 be 49 66 72 be 87 e1 e2 bd
       -0.23696347 -0.26723582 -0.23671831 -0.11078172
0003c0 e8 37 85 be fb d7 4e be 7f b1 15 be 47 c4 e2 bd
       -0.26019216 -0.20199578 -0.1461849 -0.11072593
0003d0 3b ac 3e be e3 88 03 3a 0f e7 aa bd 46 0a ba bd
       -0.18620388 0.0005017651 -0.08344852 -0.09083991
0003e0 47 7f 8f 3b af 82 30 bc 47 14 86 bd 9f 23 af bc
       0.0043791863 -0.010773345 -0.06546836 -0.02137929
0003f0 6b a8 ef bd 40 fb 08 bd 67 61 e1 3b 88 ef e2 bc
       -0.11702045 -0.033442736 0.0068780663 -0.027702108

conv1.bias f4 [6]
000000 7d 08 17 bd 56 6d 7b bd 44 f9 1c 3f 7c f2 78 3f
       -0.03687333 -0.061383568 0.6131785 0.97245
000010 a8 bc 9a be 70 5d e0 3d
       -0.30222058 0.10955322

conv2.weight f4 [16, 6, 5, 5]
000000 3d e5 0c 3e b8 4d b1 3d 57 74 a4 bd 7e 29 3d be
       0.13759322 0.08657402 -0.080300026 -0.1847286
000010 4a ed 96 bd a6 b9 a5 3d a6 ad b4 3d e7 2c 02 bd
       -0.07369478 0.0809205 0.08822183 -0.031781103
000020 0d 98 2c 3d 39 39 f1 bd 67 63 9a bc d7 87 40 bd
       0.042137194 -0.117784925 -0.018846227 -0.047004547
000030 85 f5 b1 3c c0 17 8e bd b6 c1 48 bd 76 b4 e1 bb
       0.021723518 -0.06938124 -0.049012862 -0.0068879677
000040 fa 4c fd 3d 81 dd d5 bb 9d ae 82 3c 92 de 39 bd
       0.12368198 -0.0065266495 0.015952403 -0.045378275
000050 39 06 25 3b 95 c9 70 bc 9e 64 18 3d 3a eb de 3d
       0.002518071 -0.014696498 0.03720533 0.1088471
000060 13 9e 1f 3e 02 c3 d8 3d 7d 36 a5 3c b5 a0 78 3b
       0.15587644 0.1058407 0.020167584 0.0037937586
000070 61 62 86 bd 8d 07 f7 3d c0 83 a3 bd 68 fe d4 bd
       -0.06561733 0.12061987 -0.07984114 -0.10400087
000080 d7 ea fd bd 0b 4b 3f 3c c2 52 d6 3a 3e 3e 34 bd
       -0.12398308 0.0116756065 0.0016351568 -0.04400467
000090 c3 07 ca bd 61 34 29 ba db 22 cd bb 54 80 4f bd
       -0.09864762 -0.00064546434 -0.0062602586 -0.050659493
0000a0 f7 6e 31 3d 46 7a aa 3d 9b 31 79 3d 5f 9e 00 bd
       0.043318715 0.08324103 0.060838323 -0.031401034
0000b0 d5 4c 0f bd b1 5a c8 bc e9 2e ba bd 3c bb cf bb
       -0.034985382 -0.024457308 -0.09090979 -0.0063394587
0000c0 25 75 26 3c c0 d0 10 3d 78 70 43 3b bc 76 ef bc
       0.010159765 0.03535533 0.0029821675 -0.029231422
0000d0 c5 33 96 3c 55 ff 34 3c bb d6 10 3e 57 5a 0b 3c
       0.018335233 0.011047204 0.14144413 0.008505425
0000e0 5b d1 03 3c 0b fb 18 3c ed d0 e8 3c 4e ed c1 3c
       0.00804552 0.009337197 0.028419936 0.023672726
0000f0 4d b1 10 be 28 a8 82 bd c4 65 31 bd ff dc 15 3d
       -0.14130135 -0.063797295 -0.043309942 0.03658771
000100 6f a3 09 3b 00 a1 a8 bd ca f4 5b 3c 3b 69 b3 3d
       0.0021001955 -0.08233833 0.0134250615 0.087603055
000110 68 4e 2e 3d fa 5b ba 3c 2a e0 0c be bc 08 62 3d
       0.042555243 0.022748936 -0.13757387 0.05518411
000120 ab ba 75 3c 61 f2 51 bd fa f5 47 bd c4 bb 21 3e
       0.014998118 -0.05125654 -0.048818566 0.15794283
000130 4a 91 1c 3e 68 2d 11 3e fa 1d f4 3d b5 c3 1b 3e
       0.15289798 0.14177477 0.1191978 0.15211375
000140 7c fe e7 bc f8 0c bb bd d8 ce a5 bd cf e8 75 bd
       -0.02831959 -0.09133333 -0.08096093 -0.060036477
000150 38 2a 8a 3d 12 0b 0a be 49 19 0c be 87 11 21 be
       0.06746334 -0.13480785 -0.1368152 -0.15729342
000160 1d 4d 65 bd 61 a4 48 bd 37 c5 02 bc c2 2c 23 bd
       -0.055981744 -0.04898489 -0.00798159 -0.039837606
000170 de 17 71 bd 86 fe 8c bd e8 11 be 3c 93 2b f7 3c
       -0.058860652 -0.06884484 0.023201898 0.030172145
000180 59 32 58 3c 5b 3b 7e bc 97 21 89 bd f2 05 92 bc
       0.013195598 -0.015517081 -0.0669586 -0.0178251
000190 22 e0 aa 3e 80 af 86 3e bf 87 a4 3e 09 53 53 3e
       0.33374125 0.2630577 0.32134816 0.20637144
0001a0 9b 7a 1c 3e 19 b0 d7 3d 79 b0 43 3e a0 a4 f4 3d
       0.15281145 0.10531635 0.19110288 0.11945462
0001b0 51 24 17 3e c4 1c 02 ba 60 41 a8 3e eb f1 ad 3e
       0.14759947 -0.0004963393 0.32862377 0.3397363
0001c0 f4 d5 29 3d d0 d4 74 bd c5 16 d2 bc 81 50 57 3b
       0.041463807 -0.059773266 -0.025645623 0.003285438
0001d0 3a 7d e3 3d b3 b3 86 3e e4 5a 78 3e 25 03 67 3e
       0.111078694 0.26308975 0.24253422 0.22559793
0001e0 6f 3e 32 3d d8 96 0f 3d 4d 9c c2 3c 8e 1b 2b 3d
       0.043516573 0.035055965 0.02375617 0.041774325
0001f0 5a 55 6c 3d d8 2f 9b bd f7 8b 12 be ec 7a 25 bd
       0.057698585 -0.07577485 -0.14311205 -0.04040043
000200 80 9e d3 3c 94 09 9f 3d 71 74 e7 bd 26 e6 ef bd
       0.025832415 0.07765499 -0.11301506 -0.11713819
000210 96 c6 05 3e f5 fa 1c 3e 04 10 25 3e 92 30 39 be
       0.13064036 0.15330108 0.1611939 -0.18084934
000220 6f a2 b2 3d fd 42 af 3d 2b ff 9d 3d bb b9 44 bd
       0.08722388 0.08557699 0.07714685 -0.04802869
000230 a6 f9 a5 3d 5b 0c 74 3d 3e b7 80 3d 3a 75 f8 bd
       0.08104257 0.059582096 0.06284951 -0.12131734
000240 32 58 73 3e 4c 39 1c 3c c2 25 a4 bd d8 63 01 be
       0.23764113 0.009535145 -0.08015014 -0.12635744
000250 64 6f c1 bd b4 30 01 bd 8d 59 8c bd f9 ab 08 3e
       -0.09445074 -0.031540588 -0.06853018 0.13346852
000260 bc f6 f2 3d a0 b4 d6 3d fb 51 1f 3e cd a2 ac bd
       0.11863467 0.1048367 0.15558617 -0.08429489
000270 c7 65 6b 3d 1a d1 a6 3d 16 c9 19 3e db 60 7c 3d
       0.05747011 0.08145352 0.15018114 0.061615806
000280 79 20 62 be 0b 22 86 3d 5e 1f 8a bd 9c ee 05 3e
       -0.220827 0.06549462 -0.06744264 0.13079304
000290 50 f6 4d bd 04 fd 23 be e1 fb 15 bc 78 42 55 3b
       -0.05028373 -0.16014487 -0.009154291 0.003254084
0002a0 2f 8f b0 3d 4b a6 b3 bd b0 aa c1 bd 7a bc 8a bc
       0.0862106 -0.08771952 -0.09456384 -0.016935576
0002b0 08 ed be 3c f5 00 42 3d 19 e6 c6 bd cd c0 c5 bd
       0.023306385 0.047364194 -0.097118564 -0.096559145
0002c0 c0 f0 41 bd a9 b5 00 3e 90 d5 af 3d 3c 64 6e bc
       -0.047348738 0.12569298 0.08585656 -0.014550265
0002d0 36 10 15 be 52 2d 06 bd e3 e8 40 3d 2e a0 30 bd
       -0.14556965 -0.032758065 0.047097098 -0.04312151
0002e0 14 84 ec bd 27 c2 5a be 20 3f 0f be e0 24 68 3c
       -0.115486294 -0.21363126 -0.13988924 0.014168948
0002f0 0b 39 63 bd 8d e6 1b be 40 81 0f be ea 93 44 bd
       -0.055474322 -0.15224667 -0.14014149 -0.047992624
000300 62 97 89 bd 7a 60 eb 3d f4 db 1d 3d 52 a8 b7 bd
       -0.06718327 0.11493011 0.03853984 -0.089676514
000310 a8 60 fb bd 20 a2 82 3d e6 4e 84 bb b4 5b 35 bd
       -0.12274295 0.06378579 -0.0040377257 -0.044276908
000320 49 79 1c bb d7 16 13 3c 7e ce a2 3d 18 61 4b 3d
       -0.0023876003 0.008977613 0.079495415 0.049653143
000330 70 fa 57 3c 5a 60 51 be bc 34 62 bd ee d4 2b 3d
       0.013182268 -0.20446911 -0.055226073 0.041951112
000340 10 75 05 3d 54 e3 ad bd 02 80 6e be 57 bf 83 bd
       0.032582343 -0.08490625 -0.23291019 -0.064329796
000350 8e 83 98 bd d6 af 11 3e ac 06 28 3c 92 48 0e be
       -0.07446967 0.14227232 0.010255497 -0.13894871
000360 59 f6 dd 3c bc 1b a2 3c 8c 96 2f 3e 38 d6 cc 3d
       0.027095007 0.019788615 0.17147273 0.100017965
000370 e7 77 ca bd 5c d2 5e bd bb 42 b6 3d 38 52 34 3e
       -0.09886151 -0.054399833 0.088994466 0.17609489
000380 16 8f a5 3d 29 6a b9 bd 4f eb 8c 3d 4b d3 86 bd
       0.08083932 -0.090534516 0.06880819 -0.0658327
000390 a5 34 c4 3c 93 03 d0 3d b3 9f 9b bd 98 4c 65 3c
       0.023950884 0.10156932 -0.075988196 0.013995312
0003a0 82 c6 60 bd 40 61 b4 3d 3b 1c 6c bc 02 56 97 bd
       -0.05487681 0.088076115 -0.014411028 -0.073894516
0003b0 b8 10 0d 3e de a6 b7 3d 56 14 c7 bb b5 51 ff bb
       0.13775909 0.08967374 -0.0060754223 -0.0077917227
0003c0 6d da 91 bd 2b 3e 46 bc 8b f6 86 bd 8c 9e 0a be
       -0.071217395 -0.012099783 -0.06589993 -0.13537043
0003d0 09 db 8b bd a4 e4 0b be fb c4 2c be dc d9 53 be
       -0.06828887 -0.13661438 -0.16872017 -0.20688576
0003e0 5f 48 ae bd 1d a3 09 be f2 06 10 be a0 2c 97 bd
       -0.085098974 -0.13441129 -0.1406515 -0.073815584
0003f0 be bf 58 be 7e 4f 68 bd 8d 73 31 bd 12 ed d9 bd
       -0.21166894 -0.056716435 -0.04332309 -0.10640921

conv2.bias f4 [16]
000000 2d 5c ea be 05 ce e2 3e fa 17 57 3f c0 a8 09 be
       -0.4577345 0.44297805 0.8402096 -0.1344328
000010 c0 01 b7 bc 96 b9 2c 3e 53 b6 3d 3e 8f 34 1e be
       -0.022339702 0.1686767 0.18526582 -0.15449737
000020 51 49 0b 3f e4 d7 ae be 9c e2 5a bf 77 73 62 be
       0.54408747 -0.34149086 -0.8550203 -0.22114359
000030 5e e6 8a bd 39 31 74 3d 1b a8 9a be 59 83 1a 3f
       -0.0678222 0.059617255 -0.3020638 0.6035667

fc1.weight f4 [120, 400]
000000 84 81 aa bc e5 3e 9e 3c 91 fe 31 3d 53 b9 74 3d
       -0.020813711 0.0193171 0.043455664 0.05974705
000010 f0 c1 53 3d 43 d5 0a bc fe 7a 9d bc 84 14 07 bd
       0.051698625 -0.008473697 -0.019223686 -0.03297855
000020 e0 21 0a bd 36 cd 28 bc 7b 6d 26 bd fa 43 3c 3c
       -0.033723712 -0.010302832 -0.040631752 0.011490816
000030 28 7a 8d 3d a3 86 93 3c 16 f6 91 3b 06 bd 67 bb
       0.06908065 0.018008536 0.0044543846 -0.003536047
000040 8b 73 0f bd 4b f5 53 3b 31 0b 9f bd 01 4d 32 bc
       -0.0350223 0.003234225 -0.077658065 -0.010882617
000050 99 cf c4 bc 1c 3e 0c bd 7d 13 63 bc 78 48 9b bd
       -0.024024772 -0.03423892 -0.013859627 -0.07582182
000060 57 d1 98 bd e1 a3 8a 3d 2c 1c 2b 3d fb f2 91 3c
       -0.074618034 0.06769539 0.041774914 0.017816057
000070 8f 43 1e 3d 0e 8a 21 bd c5 bf 84 bc b4 d3 b7 3d
       0.038638648 -0.0394383 -0.016204724 0.08975926
000080 f0 77 73 3c 82 91 f2 3c 29 ba aa 3c 9f a2 46 3d
       0.014860138 0.0296104 0.020840721 0.04849493
000090 e7 c8 25 3d 07 b1 e1 bb 81 e0 9c 3d 0c f5 c1 3c
       0.0404748 -0.0068875584 0.07660008 0.023676418
0000a0 1b 7c f8 3a 8c e4 73 3d d3 ff 87 bc 2d 27 3e bc
       0.0018957885 0.05954413 -0.016601479 -0.01160602
0000b0 7b 1e 6f bc e2 a0 04 3e 4f 3b cf 3d 8a 78 c6 3d
       -0.014594669 0.12951997 0.10118734 0.0969096
0000c0 ee 4d 3a 3d cf 3f f2 bc 30 53 61 bd 83 bc 5c bd
       0.045484476 -0.029571442 -0.055010974 -0.053890716
0000d0 70 9f 0f bd cb e4 d0 3c ec 6e 75 3d 78 01 b5 bd
       -0.03506416 0.025499722 0.059920236 -0.08838171
0000e0 f2 b0 7a 3c af 86 1f bb 8e af 44 3d d0 75 fa bc
       0.015300976 -0.0024341752 0.048018984 -0.030573756
0000f0 97 97 a3 bc e1 fe bd 3c 91 7f 33 bd ab 66 34 3b
       -0.019969745 0.023192825 -0.04382283 0.0027527015
000100 22 47 94 bb b6 97 49 bd c5 20 f4 bb b4 30 e9 3c
       -0.0045250813 -0.04921695 -0.0074501955 0.028465606
000110 ef e2 00 bd bc b7 e4 3d c5 e1 e5 3c 28 78 83 bc
       -0.03146642 0.11167857 0.028061757 -0.016048506
000120 0b 5f 5b ba 34 ff c2 3c d3 8f 1f 3d 41 ec d6 3c
       -0.00083683495 0.023803331 0.03895552 0.026235702
000130 a1 72 66 3c 90 f2 82 3d 52 6b 06 3d 96 52 30 3d
       0.014065416 0.063939214 0.032817192 0.04304751
000140 d0 18 27 3d b4 86 6c 3d b5 de 87 3a 5e 91 0b 3d
       0.040795147 0.05774565 0.0010366054 0.03407418
000150 ef 79 23 bd 7b 6d 30 bd 04 53 c1 3c e2 88 b2 bb
       -0.039911207 -0.04307316 0.023599155 -0.0054484466
000160 d5 3f 54 bc fc 46 54 3d d5 82 d4 bc 60 f1 03 3d
       -0.012954672 0.05182551 -0.025941292 0.032212615
000170 f1 a2 78 bc 70 80 c3 3c ab c7 5b bd 08 87 60 bd
       -0.015175567 0.023864955 -0.053657215 -0.054816276
000180 5d 79 25 3c 11 e7 01 3d 08 1d 00 3d 9a 1f 8f bc
       0.010099736 0.031714503 0.031277686 -0.017471123
000190 8e 97 d8 bd 50 7f ee 3c 1a eb a2 3d 87 03 ee b8
       -0.10575782 0.029113442 0.07954998 -0.000113493814
0001a0 23 43 80 3d 6b 8b 26 bc a1 f6 72 bc 52 55 cf 3d
       0.06262805 -0.010165076 -0.014829309 0.101236954
0001b0 81 ba c4 bc 0a 11 1f 3d b5 70 9f bc 83 9a 5e 3d
       -0.024014713 0.03883461 -0.019462923 0.054346573
0001c0 48 e1 87 3d c1 da 0c bc e5 34 b8 bc c7 2b c9 3c
       0.06634766 -0.008597077 -0.02248616 0.024557007
0001d0 5e 7f 4f 3d ce 28 30 3d c3 81 03 3c 34 ac 49 bd
       0.050658576 0.043007664 0.008026543 -0.04923649
0001e0 8a 80 91 bd 46 31 a6 3c 42 6c ad 3c ca d4 94 3c
       -0.07104595 0.020287167 0.021169785 0.018167872
0001f0 ac 8d fc 3b 07 54 9b bd 8d 90 d0 bd 8c bb 5e ba
       0.0077073183 -0.07584386 -0.10183821 -0.00084965746
000200 45 9e 67 3c 64 31 24 bd f4 44 6d bd 00 83 34 bd
       0.0141368555 -0.040086165 -0.057927087 -0.044070244
000210 ee 7e 16 bc 0b b3 d3 bc f4 9e d3 bd 34 30 09 3c
       -0.009185536 -0.02584221 -0.10333052 0.008373309
000220 d8 39 37 3d 26 21 28 3d 45 ff 1e 3a 4e f7 83 bd
       0.0447329 0.041047238 0.000606526 -0.06443654
000230 bf 5b 84 3b d3 34 86 3d 3c 0f 42 bd c7 fb 05 bd
       0.0040392573 0.06553044 -0.04737781 -0.032710817
000240 ab 53 cb 3c df 09 7a 3c 13 c3 39 bd f7 1e 6b bd
       0.02482017 0.0152611425 -0.045352053 -0.057402577
000250 2c 59 ed bc 15 34 e1 bd 35 56 29 3d 7c 94 75 bc
       -0.028973185 -0.10996262 0.04134198 -0.014989015
000260 0d b1 be bc 4a 6c 00 bd 49 7a 3b 3d 94 c3 9e bc
       -0.023277784 -0.031353272 0.045770917 -0.019380368
000270 04 4a 40 3c 14 dd 39 bd 36 61 4a bc 0a 49 8c bc
       0.011736397 -0.045376852 -0.012352278 -0.017124671
000280 50 8b a0 3c e1 cf 01 3d a8 1d 14 3d c9 93 c2 3c
       0.01959768 0.03169239 0.036161095 0.02375211
000290 46 c5 8b 3d d3 44 b2 3d f4 54 62 3d d2 f2 4e 3d
       0.06824736 0.087045334 0.0552568 0.05052454
0002a0 ed aa 70 3d d5 fc dc bc eb a6 06 3d 3b 3f 3e 3d
       0.058756758 -0.026976028 0.03287403 0.04644702
0002b0 96 cf 1f 3d 5e db 35 bc 6e ea 18 3d 72 39 ed 3b
       0.03901633 -0.0110996645 0.037332945 0.007239514
0002c0 ab c4 eb bc 96 af 8a 3d 6e 6d 6d 3d cf d3 3b bd
       -0.028780302 0.067717716 0.05796569 -0.045856293
0002d0 52 55 9f 3c ae 52 cd 3b 2b df b8 3c 60 06 2f bd
       0.019449864 0.0062659597 0.022567352 -0.04273069
0002e0 d7 d5 5e bd e0 15 12 3c 1e da 45 bc a9 f3 b1 3c
       -0.054403152 0.008916348 -0.012075929 0.021722632
0002f0 47 8d 07 3b 99 0c 58 bd 0e a5 03 bb fd df 69 3d
       0.0020683573 -0.05274639 -0.0020087394 0.057098377
000300 17 17 bc 3b 67 4f 33 3d 36 d8 a1 bd f9 57 16 3d
       0.005740057 0.043776896 -0.07902567 0.03670499
000310 8d 0b 90 3d cd d3 96 3c 2b e6 7e bd f5 ee 5a bd
       0.07033453 0.018411541 -0.062231224 -0.053450543
000320 8a 73 99 3b 3f fa 75 3c 54 15 db bc 62 9d cd 3b
       0.004682963 0.015013277 -0.026743568 0.006274865
000330 23 41 ac bc cf 15 f3 3a b5 8e 47 3c 0f bd 56 bd
       -0.021027153 0.0018545928 0.01218002 -0.052426394
000340 ae de a6 3c 62 f3 3a bc cf 7a 68 bc 0e 9b 1c 3c
       0.020369854 -0.011410566 -0.014189436 0.009558452
000350 9e 1f f1 ba 43 e9 a6 bc da 1b ff 3b 47 37 69 bc
       -0.0018396263 -0.0203749 0.0077853026 -0.014234371
000360 9d 7b 20 3c 65 44 65 3d 2d 12 20 3b 1d fe 13 bc
       0.009795097 0.05597343 0.0024424896 -0.009032753
000370 d4 9b 25 bd 2a 02 9d bc d1 b4 07 bd 0d 62 99 bd
       -0.040431812 -0.019166071 -0.033131424 -0.07489405
000380 d1 18 fd b9 d6 59 e0 bd 0d 1f 0d be 41 ae f0 bc
       -0.0004827441 -0.10954635 -0.13781376 -0.029379966
000390 99 8c 9b 3b 5f 32 c5 3d e8 4e 2d bd 64 29 12 be
       0.004746985 0.09628748 -0.04231158 -0.14273602
0003a0 65 7e d7 bc c0 de 28 bd 7a f5 78 3d da a7 91 bd
       -0.026305387 -0.041228056 0.06078098 -0.07112093
0003b0 c7 12 32 bd dd da 79 bd 2b 7c 79 bd 57 90 6d 3d
       -0.04347494 -0.06099974 -0.06090943 0.05799898
0003c0 33 88 92 bd 32 ee 4a 3d 5f 9f 81 3d c4 db 90 bd
       -0.07154884 0.049543567 0.06329226 -0.07073167
0003d0 b7 93 fb bd f7 77 83 bd ba a3 1d 3c 47 41 cc 3b
       -0.12284034 -0.06419366 0.009621555 0.0062333676
0003e0 8c 96 a7 bd 3f 28 6f bd 0f 33 d9 bd c8 36 8b bd
       -0.081830114 -0.05838799 -0.10605442 -0.06797558
0003f0 19 28 85 bd ad 5f d4 bc 72 73 35 bd 2a 93 7f bd
       -0.06501789 -0.025924528 -0.04429955 -0.062396206

fc1.bias f4 [120]
000000 26 ba e7 3d 2a eb 0f be ad ac 96 3d 3f 50 d7 3c
       0.11314802 -0.14054552 0.07357154 0.026283382
000010 16 93 0d 3d e2 e4 09 3e 96 2d 29 3d 77 a2 23 3c
       0.0345641 0.13466218 0.04130324 0.009987465
000020 c4 ee 4d ba 44 79 05 3d cd 3a 08 3d b7 d2 24 3c
       -0.0007855708 0.03258635 0.0332592 0.010060004
000030 1d 08 2d bd 77 8c a9 3c fd 14 12 bd 4f 95 d5 bb
       -0.042244066 0.020696862 -0.035664547 -0.006518043
000040 45 86 ed 3a 47 c9 6e 3e 84 17 9a bc e2 88 90 be
       0.001812168 0.23318969 -0.018810041 -0.28229433
000050 15 e1 06 3e aa 61 84 bc 4c a7 90 bd 27 1e 79 3d
       0.131718 -0.016159851 -0.07063159 0.06081977
000060 27 86 f5 3d da 71 05 3c ce 1f dc 3d 5c 56 91 3d
       0.11988478 0.00814482 0.10748254 0.0709655
000070 a0 e9 ab bd a3 b8 de 3d db 90 a6 3c 10 45 9d 3c
       -0.0839417 0.108750604 0.020332744 0.01919797
000080 03 7f 61 bc d6 38 d8 bd ad 21 17 3e 0e 14 c4 bd
       -0.013763192 -0.105577156 0.1475894 -0.09574138
000090 7d 93 d3 bb 60 ca 12 3d d8 fa c6 bc 44 f4 b4 bd
       -0.006456791 0.03583753 -0.024289533 -0.088356525
0000a0 24 5b 44 bd 8d 0f a4 bd fd c8 ae bc 38 65 43 bd
       -0.04793848 -0.080107786 -0.021336073 -0.04770395
0000b0 6c 3c 2b 3d d9 cc f9 bd 3d 0e 40 3d 82 64 3f bd
       0.04180567 -0.12197275 0.04688858 -0.04672671
0000c0 87 4c c3 3b cf 41 c5 bd c2 5a 57 3c de 14 bc 3d
       0.0059600505 -0.096316926 0.013144197 0.091836676
0000d0 d6 20 8a 3d 69 2c 21 3b 89 3f ab 3d 2c 2a 77 3d
       0.06744544 0.002459312 0.08361728 0.060342953
0000e0 e1 d7 17 3b 5e cb a3 3b 52 04 db 3a 61 90 06 bd
       0.0023169445 0.0049986085 0.0016709662 -0.032852534
0000f0 3d b2 8f bd e7 ce 0c 3e 67 fc 51 bd 7a 88 a9 bc
       -0.07016418 0.13750802 -0.0512661 -0.02069496
000100 6f b0 25 be 7d 5c 84 3d db 5b 31 3b 2f 3d 0e bd
       -0.16180585 0.06462953 0.0027062807 -0.034726318
000110 d0 00 f5 3d 07 55 ea 3b ce 03 a0 3c 0c ba 02 bd
       0.119630456 0.0071512493 0.019533064 -0.03191571
000120 16 0b 5e bc ab 1f dc bc b0 d5 7a bc df 7f 55 bc
       -0.013552448 -0.02687057 -0.015309736 -0.013030975
000130 ac 1b 01 3e 0f c1 12 3d fc f3 02 bd 95 a7 a7 3b
       0.12608212 0.035828646 -0.031970963 0.005116413
000140 b3 fc 7b bd c3 35 37 3d ce 42 04 bd e0 79 e1 bc
       -0.06152029 0.044729006 -0.032290272 -0.027523935
000150 2b 75 46 3c a6 25 34 bd 8e cb 88 3d 34 69 d6 bd
       0.012112896 -0.043981217 0.0667945 -0.10469285
000160 94 c5 98 bd 23 f6 c1 bd e4 29 df 3c 3d e8 ba bc
       -0.0745956 -0.09470775 0.027241655 -0.022815818
000170 e2 ef 59 3d c4 29 88 bc 50 66 12 be 0c 3e b2 3b
       0.053207286 -0.016621478 -0.14296842 0.0054395255
000180 4c c7 1a bd ba 5c ae 3d af fc 62 3d b6 f0 d0 3d
       -0.03778772 0.0851378 0.05541676 0.10202162
000190 6b 2a bb bc 11 bf 33 3d e3 05 d4 bc b1 b2 de bd
       -0.022847375 0.043883387 -0.025881713 -0.108739264
0001a0 dc e7 a6 3c d1 e6 06 3e 9d ee d5 3d 3b 49 db bc
       0.020374231 0.13173987 0.104459025 -0.026768317
0001b0 8b b0 a3 ba 26 29 92 3e 85 c0 e0 bc 2a 32 f4 3d
       -0.0012488527 0.2854702 -0.02743555 0.119236305
0001c0 fd 28 1e 3d 14 ab 24 3d 89 e8 f0 3d f9 05 e4 bd
       0.03861331 0.040202215 0.117631026 -0.11133952
0001d0 a9 e8 2d 3d 3a dd 09 bd 97 46 35 bd 8a 67 89 3c
       0.04245821 -0.033658244 -0.044256773 0.016773004

fc2.weight f4 [84, 120]
000000 9d 11 86 3d ea b2 f8 bc 72 8e e3 bd f1 e9 87 3c
       0.06546328 -0.03035875 -0.11111154 0.016591044
000010 40 90 86 3d 53 a1 ea bb 10 4f 4c bd ef 6a 52 be
       0.06570482 -0.0071603446 -0.049880087 -0.20548604
000020 da 7c 79 bd b0 2d a1 bd 50 91 76 3d 77 51 1b bb
       -0.060910083 -0.07870042 0.060197175 -0.002369968
000030 a1 f8 00 bd 7b db 0d bd 78 bf c6 3d 11 74 a5 3c
       -0.03148711 -0.03463314 0.097044885 0.020196946
000040 c2 7a c7 3c 20 f9 c8 bc e6 b2 37 3c 00 e6 89 bc
       0.024350528 -0.024532855 0.011212086 -0.016833305
000050 9b 47 7c 3d e1 57 12 bd 13 e0 e4 bc 47 9b 11 bd
       0.061591726 -0.03572834 -0.027938878 -0.035548475
000060 f5 cc 61 bb ab 92 9d 3d 19 72 2d bd b7 e0 88 3c
       -0.003445444 0.0769399 -0.04234514 0.016708715
000070 b7 d2 6e 3d 9b b5 51 bd 81 5b af 3d ea 6a 7c 3d
       0.058306422 -0.051198583 0.08562375 0.0616254
000080 9f 85 3d 3d 92 57 2b 3d 29 2e ee 3d e6 e1 d1 3c
       0.04627001 0.04183156 0.11629898 0.025620412
000090 b8 d8 2b be f1 fc 8d 3d 11 3a 26 bb ce ad 91 3d
       -0.1678189 0.0693301 -0.00253642 0.07113229
0000a0 9c 4b d4 3d dc 6c 60 3d f2 80 30 3d fd ee 49 bd
       0.10365984 0.054791316 0.04309172 -0.049300183
0000b0 f8 06 cc 3d 13 d9 d3 39 6d 35 39 be 0a 5b 20 3e
       0.09962267 0.0004040679 -0.18086787 0.15659729
0000c0 04 b9 0c bc f2 bd f1 3c dc 48 85 3d 49 f6 f3 bd
       -0.008589033 0.029509518 0.065080374 -0.119122095
0000d0 4d 9f 02 3e 28 22 2c 3d 0a 68 88 bd 80 f5 de 3d
       0.12756081 0.04202476 -0.06660469 0.10886669
0000e0 3f c2 f6 3d 3e 44 97 bd fc c9 a8 bc f7 30 a0 bd
       0.12048768 -0.07386063 -0.020604126 -0.07821839
0000f0 9c 7f b7 3d 5d d6 57 bd 5e e7 b2 bc 02 9e ac bd
       0.089598864 -0.052694667 -0.02183884 -0.08428575
000100 91 dc 0a 3e cd fb 86 3d 9a dd 08 3e 0e 03 8d 3d
       0.13560702 0.06590996 0.13365784 0.06885348
000110 f2 91 98 3d 59 10 a9 3d 5d 8c 12 3c fe 19 8e bd
       0.07449712 0.08255071 0.008944598 -0.06938551
000120 30 07 dd bd ca 6e 8f bd 53 86 98 bd f2 ef 90 3c
       -0.107923865 -0.07003553 -0.07447495 0.01769254
000130 c3 ca 2d bd f7 c0 c9 3d f1 fa c0 bc 28 ca 4d bc
       -0.042429697 0.09851258 -0.023557158 -0.012560405
000140 7b 6f 59 3d de 50 5a 3d 89 9c 19 bd d6 51 d3 bd
       0.05308483 0.053299777 -0.0375028 -0.10318343
000150 2d eb b5 3c ad d5 51 3d 70 38 b9 bd aa 40 6a 3d
       0.022206867 0.051229168 -0.09043968 0.057190575
000160 a4 ad 1a bd 7d d6 17 3b 8c 30 4c 3d 9f 6a 4e bd
       -0.037763253 0.0023168616 0.049850985 -0.05039465
000170 c3 92 cb 3d 0b ed 99 3d fb 2d 91 3d 63 7f 03 3d
       0.09940102 0.075159155 0.07088848 0.032103907
000180 ac b5 d1 bc 6c d2 37 bd d8 85 a4 3d 00 ca 4e bd
       -0.025599323 -0.04487841 0.08033341 -0.05048561
000190 0b 2c b8 bd f2 40 51 bd fc 0d 1e be 08 f6 9f bd
       -0.089927755 -0.051087327 -0.15435022 -0.078105986
0001a0 65 01 8b 3d 3b 9d 8b bc 71 fe 23 be 68 ac e3 3d
       0.06787375 -0.017042747 -0.1601503 0.11116868
0001b0 b0 84 05 bd 38 06 98 bc 57 34 e9 3d 93 2d 8c bd
       -0.032597244 -0.018557653 0.11386936 -0.0684463
0001c0 17 53 99 3c 92 f1 d7 bd 5a 11 69 3c 2a d6 1c 3e
       0.018716378 -0.10544123 0.014225328 0.15316072
0001d0 58 b4 f1 bd ad 97 0b bc 40 58 3d 3d 21 9a 5c 3b
       -0.11801976 -0.008520049 0.04622674 0.0033661204
0001e0 15 ec 9f 3c 93 d2 05 3d 59 20 85 3d c8 56 f7 ba
       0.019521752 0.032671522 0.065003105 -0.0018870467
0001f0 f9 d9 2d bd 05 52 c1 3d 98 cd 3b 3d 8a 7c 73 bd
       -0.042444203 0.09439472 0.045850366 -0.05944494
000200 cb 3c 6f bd c9 ab 0d 3d 15 47 8c 3c d8 e1 df bc
       -0.058407586 0.034587655 0.017123738 -0.02732937
000210 de de 7f 3d ab f1 65 3d e8 40 cc bd eb ec 94 bc
       0.062468402 0.056138676 -0.099733174 -0.018179378
000220 aa ee 9c 3d 4d 8e 7c bd c8 ab a5 3d 1f c9 e9 bd
       0.07662709 -0.061659146 0.08089405 -0.11415314
000230 c6 c0 e5 bd d7 0a 8b bc ab 19 dd bd 69 b9 24 bd
       -0.11218409 -0.016972942 -0.107959114 -0.040215883
000240 79 ea 72 3c b4 f6 1f bc 12 d1 4c bd bb 34 f2 3d
       0.01482641 -0.009763408 -0.050004072 0.11826464
000250 80 98 28 bd de 9c 68 bd fe 1b 86 3d 4b 79 f8 3d
       -0.04116106 -0.056790225 0.06548308 0.1213251
000260 0f 95 89 bd d6 22 13 bd fb af 79 ba b8 22 8d 3c
       -0.06717884 -0.035921894 -0.00095248193 0.01722847
000270 de 7f de bd 0a 75 88 3d d0 96 b2 3d 2c 21 4d bd
       -0.108642325 0.066629484 0.087201715 -0.050080463
000280 58 f5 aa 3d 32 0c 48 bd 5f 2e 50 bd 45 88 98 3b
       0.08347577 -0.048839755 -0.050825473 0.0046549165
000290 80 8e ce 3c c9 87 be bd e9 41 f7 3d f5 e1 bf bd
       0.025214434 -0.09303243 0.12073118 -0.0936927
0002a0 97 c3 8f 3d a9 61 a1 bd a8 cd 09 bc 42 7c 5d ba
       0.07019728 -0.07879955 -0.008410849 -0.0008448997
0002b0 4d 9d 4e bd f3 9b 01 3d 6b da ef 3d 2c c3 f3 bc
       -0.050442982 0.031642865 0.11711582 -0.029756151
0002c0 75 ea 16 be 80 6b 6d 3d 74 5d c2 3d d9 4c 3f 3d
       -0.14737876 0.057963848 0.09490481 0.046704147
0002d0 93 70 ae 3d 0f a7 b1 bd 1e e1 af bc 38 81 b1 bd
       0.085175656 -0.08674442 -0.021469649 -0.08667225
0002e0 6c b9 80 ba a6 6e a0 bd e0 7e 2b bd e3 7d 10 3c
       -0.0009820885 -0.078336045 -0.041869044 0.008819076
0002f0 e3 86 dd 3c 33 dd 46 bd 21 b9 60 3d 14 e4 11 3d
       0.027041858 -0.048550796 0.054864053 0.035617903
000300 aa f4 99 bc a1 8d f5 bd a7 26 b9 bd 32 16 58 bd
       -0.018793423 -0.11989904 -0.090405755 -0.052755542
000310 db 4c 95 3c 16 50 3d 3c e9 7e e0 bc 7b b7 15 3e
       0.018225124 0.0115547385 -0.027404265 0.14620773
000320 c1 1f 99 bc 38 86 b9 3d 3a da 98 3d 08 b8 d0 bd
       -0.0186919 0.09058803 0.074634984 -0.10191351
000330 19 14 53 3c 73 e9 f4 bb 75 ed f4 3d dc b5 01 be
       0.01288321 -0.0074741184 0.11959354 -0.1266703
000340 6f fa 6e bc 6e e7 a0 3d 35 ce 88 bd ea 66 e2 3d
       -0.014586075 0.07856642 -0.06679956 0.110547855
000350 95 e1 5c bd 86 72 aa 3d 37 aa 9c bd 2a 9f 06 be
       -0.05392607 0.08322625 -0.076496534 -0.13146654
000360 54 d1 a0 bd e2 7d ab 3d 7b c6 e0 3d 39 be 96 3d
       -0.07852426 0.083736196 0.10975357 0.07360501
000370 11 56 4e 3b 4a 55 5f 3b 92 7d c8 3d 3f 17 72 3c
       0.0031484405 0.0034077936 0.09789576 0.01477605
000380 66 0c 31 3d a6 38 51 3d 50 9e 2a bd 0a 93 58 3c
       0.043224715 0.051079415 -0.041654885 0.013218651
000390 1a 1e c9 bd 46 2a f6 3d 56 26 c3 3c fe d2 9b 3c
       -0.098201945 0.12019782 0.023821991 0.019021507
0003a0 fb 51 7a 3b 5d cb 52 3d 87 fc c8 3d bd 8d 95 bd
       0.0038195837 0.051463474 0.09813791 -0.07302425
0003b0 63 c0 85 bc 90 de d9 3b 27 05 85 bd 24 ee 2f bd
       -0.016327089 0.006648846 -0.06495123 -0.042951718
0003c0 cc 4d 81 3d 13 d8 91 bc 0a fc 00 bd 5d ef 26 3d
       0.06313667 -0.017803228 -0.031490363 0.04075562
0003d0 47 85 3d bd 9a 85 85 bc f3 ac 4f 3c 57 07 24 bc
       -0.04626968 -0.016299058 0.012675512 -0.010011516
0003e0 b0 cb e6 3b 41 66 6d 3c 7c 59 47 3d 9d 17 e3 3d
       0.0070433244 0.014489711 0.048669323 0.11088488
0003f0 89 6d 4e bc 01 13 4d bd ca 57 2e bc ae 16 15 bd
       -0.012599357 -0.05006695 -0.010641048 -0.036398582

fc2.bias f4 [84]
000000 10 57 93 bd 63 ed fe 3c 0e fa 19 bb 52 76 41 3e
       -0.0719434 0.031119054 -0.0023494991 0.18892792
000010 be 79 b4 3d bd 60 87 bc 9e b3 53 bd 6c 2b 96 bd
       0.08812283 -0.01652562 -0.05168497 -0.07332501
000020 d6 62 ef bc ce a5 3a be 0a 99 be 3c 71 e1 8e bd
       -0.029221933 -0.18227312 0.023266334 -0.06976593
000030 6a 6f 87 3e da 97 19 3d 17 d1 79 bd 89 99 cf bc
       0.2645219 0.037498333 -0.06099042 -0.025341766
000040 b5 3c 37 3c 44 e9 c4 bd 4c fd e3 3c b8 01 a1 3c
       0.011183907 -0.096148044 0.027830742 0.01965414
000050 1d 78 7c 3d af 8b 40 bd ff 1c fc 3d 60 15 fd bd
       0.061637986 -0.047008213 0.12310218 -0.123575926
000060 bd e0 8f 3d 06 75 59 3e 99 20 84 3e 7b 27 1b 3d
       0.07025287 0.21236047 0.2580612 0.03787945
000070 27 46 83 3d 04 a2 4e 3e ea d3 5c 3c c3 49 b9 bd
       0.06409865 0.20178992 0.013478259 -0.09047272
000080 26 d1 bb 3d 25 cc a4 3d de db 01 bd 1e 06 6a 3c
       0.09170751 0.0804675 -0.031703822 0.014283685
000090 70 d5 21 3e 9c 89 89 bd ad 31 d6 bd 24 19 9a 3c
       0.15804076 -0.067157 -0.10458694 0.018810816
0000a0 59 fd 0a bd 2c 4e 74 bb 1f 4d 00 be 58 ab cd bb
       -0.033933017 -0.003727804 -0.1252942 -0.0062765293
0000b0 98 7b 7b bd 5b 85 bb bd d8 e6 80 3a f7 96 45 3e
       -0.061397165 -0.09156295 0.0009834422 0.1929587
0000c0 35 68 2e be f6 e4 16 b9 af 34 8f bd c4 46 f7 3b
       -0.1703194 -0.0001439041 -0.069924705 0.0075462777
0000d0 10 74 2e bd 3d c0 40 3c eb d4 45 3e 21 66 74 3d
       -0.042591155 0.011764583 0.19319503 0.05966771
0000e0 91 d4 39 3d 41 4e 08 3e 09 4c e6 3d 32 90 3a 3d
       0.045368735 0.13311101 0.11244971 0.04554767
0000f0 fb f0 a5 bc a1 f3 a1 3d 49 f4 ab 3d 72 59 cf bc
       -0.02025651 0.07907797 0.08396203 -0.025311206
000100 f4 39 fd bb 4d 93 f3 3d 17 af ae 3e 4c 57 b6 bd
       -0.007727856 0.1189333 0.34117958 -0.08903369
000110 4a f8 e0 bd b1 8c 5f 3e 7a c9 d6 3d fb ea 04 be
       -0.109848574 0.21831013 0.10487647 -0.12980263
000120 8a ed ae bc 17 74 85 3e da c5 88 3e 7d 54 e0 3d
       -0.021353502 0.26065132 0.2671345 0.10953615
000130 26 39 57 be 17 b1 67 3e 41 68 47 3d 6a 22 f0 3d
       -0.21017894 0.22626148 0.04868341 0.11725314
000140 65 5f f1 3c 5c 92 9d bd 45 74 45 bc e3 6b 62 bd
       0.029464433 -0.076939315 -0.012051647 -0.05527867

fc3.weight f4 [10, 84]
000000 d5 1b 4b be ff 28 9f bc 8b 0d d5 bd ae be 85 3e
       -0.19834836 -0.019428728 -0.10402974 0.2612204
000010 83 0e 30 3e 3d 24 97 bd 27 cc a4 3e 3c f0 cf 3d
       0.17193036 -0.07379959 0.32187006 0.10153243
000020 15 53 4d 3c f1 eb 7e 3d 30 f4 4b bc e0 c4 71 3c
       0.012532015 0.06223673 -0.012448356 0.014756411
000030 46 44 d2 3d 8c a1 b3 3d b6 02 b5 3d a1 07 da 3c
       0.102669284 0.08771047 0.08838408 0.026614966
000040 74 01 9e 3e 68 75 11 3e 0a 4c 03 be 41 fa ac 3d
       0.30860484 0.14204943 -0.12821975 0.0844617
000050 a6 27 49 3e 3f bf e6 3d 08 d0 88 3e 02 ea 92 3e
       0.19644031 0.11266946 0.26721215 0.2869416
000060 11 00 a2 3d b7 61 c2 3d 92 5e 8e bd 6b 7d d1 3c
       0.07910169 0.09491294 -0.069516316 0.0255725
000070 30 01 d6 bd d8 a3 e2 bd ea dd 1d bd 1b 80 6f 3e
       -0.10449445 -0.11066407 -0.038541712 0.23388712
000080 1a 20 4b 3e 63 68 cd 3c 44 18 b5 3e 9b a5 9f be
       0.19836465 0.02507419 0.35370076 -0.31181034
000090 e6 e1 4e be df 5d 41 bd b2 da b7 bd cf cc 01 be
       -0.20203361 -0.047208663 -0.0897726 -0.12675785
0000a0 0d bf 8f 3d 8a 4c 9b 3d 8c 7b 52 3e a2 c6 6a bc
       0.07018862 0.07582958 0.20554942 -0.014329584
0000b0 73 07 59 3e 23 4f 9e 3d dd 2b e9 3c 94 7e f2 3d
       0.21194248 0.07729938 0.028463298 0.11840549
0000c0 dd f0 33 be 4e 7f 34 3e 00 f3 1d bd 45 1e 63 bd
       -0.17572351 0.17626688 -0.03856182 -0.05544879
0000d0 8d 24 15 be fc 88 62 be 31 7c ae be 54 45 bd 3c
       -0.14564724 -0.22122568 -0.34079126 0.023104347
0000e0 bb 12 c1 3d d2 65 65 be 8a 7a 8d 3e 03 d0 b2 3d
       0.09427401 -0.22402123 0.27632552 0.08731081
0000f0 28 63 94 be 9b db 93 3e 45 bb d6 3e 78 f5 ed 3a
       -0.289819 0.28878483 0.4193975 0.001815482
000100 9b 81 24 be e1 65 50 be a8 41 e0 bd d5 6e be bd
       -0.16065066 -0.20351364 -0.10950023 -0.09298483
000110 67 60 92 3e e9 48 da 3d 84 37 77 3e a4 12 3d 3d
       0.28589174 0.10658438 0.24142271 0.046160355
000120 e4 5c c6 bd 41 eb b2 bd 42 4a 0f be 9e 48 36 be
       -0.09685686 -0.08736277 -0.13993171 -0.17801139
000130 54 04 f5 3c c3 b0 1d be a9 28 0d bd 2c 22 28 3e
       0.02990929 -0.1539946 -0.034462605 0.16419286
000140 d5 d3 78 3d 56 d9 a9 bd 23 8b a3 bc e9 b9 47 3e
       0.060748894 -0.08293407 -0.019963806 0.19504513
000150 07 73 51 3e 81 f4 66 3c 86 73 09 3e d9 da 95 be
       0.20454036 0.01409638 0.13422975 -0.2926853
000160 a8 3d 9b bd ae 7c 38 bd 6a 10 90 3d 2f e0 2f be
       -0.07580119 -0.04504078 0.07034381 -0.17175363
000170 fa 72 d4 3c bb 8a c7 3e 36 14 9c 3e 20 25 64 3e
       0.025933731 0.3897303 0.3048417 0.22279787
000180 1e 47 43 bd 6e ad 85 be 0e 2c 75 3c 3b 52 f2 3e
       -0.047675245 -0.2610888 0.014964117 0.47328362
000190 a4 af 9a 3d 2c 6c 97 3d 3d 90 9f bb ff 82 40 3d
       0.07553032 0.07393679 -0.0048694895 0.046999928
0001a0 94 0c cb 3d 59 4c eb bc b8 a9 3e be f3 d1 74 3d
       0.099145085 -0.028722929 -0.1861943 0.059770536
0001b0 04 ed 49 be e9 2e 87 be 01 37 3d 3e 6b 23 b2 bc
       -0.1971932 -0.26402977 0.18478014 -0.021745404
0001c0 60 22 84 3d ed c3 75 be 43 73 01 be ca 55 e8 3d
       0.06451869 -0.24000521 -0.12641625 0.11344488
0001d0 1d 7c 91 be 9a da 42 be 2a 0e 73 bd 62 ad c7 bc
       -0.28415003 -0.19028702 -0.05933968 -0.024374668
0001e0 cb 13 51 3d 33 39 f4 3d 72 2e 81 3e 61 0a e8 3c
       0.051044267 0.119249724 0.25230747 0.028325262
0001f0 b2 bf 11 3d df 4c dd 3e 21 fa 42 3e b4 11 ce 3d
       0.035583206 0.4322271 0.19040729 0.1006197
000200 0c ce 10 be 34 40 4a 3d e7 c1 b9 3d d6 e6 8b be
       -0.141411 0.049377635 0.09070187 -0.2732455
000210 c7 02 81 3e 1a f2 95 bd 55 1a 0b 3c d4 75 19 3e
       0.2519743 -0.07321568 0.008490165 0.14986354
000220 26 c3 27 be 9e 61 ae bd c1 b8 92 3d df e2 b1 bd
       -0.16383037 -0.08514713 0.07164145 -0.0868585
000230 ec e9 76 bd 2d fd 3d 3e 76 28 2a be 0a 48 97 bc
       -0.06028168 0.1855361 -0.16616997 -0.018466968
000240 4a 28 d5 bd 3e 1b c5 3d a6 ef 25 be 36 5a 00 3d
       -0.10408075 0.09624337 -0.162047 0.03133603
000250 e3 db fc 3d 22 fc 8d 3d 74 8c c4 be 01 33 b7 3e
       0.123466276 0.06932856 -0.38388407 0.357811
000260 09 2b 47 bd 75 5d b1 3b 5a 67 2b bd fd 67 e8 3c
       -0.048625026 0.0054127523 -0.04184661 0.028369898
000270 04 e8 88 be cc 2a bd be dd 9d b5 be 3f 46 15 bd
       -0.26739514 -0.36946714 -0.35472003 -0.036443945
000280 93 64 34 3e d1 8e 87 be a5 a3 3d 3e 2e 5b 9b 3e
       0.17616491 -0.26476148 0.18519457 0.30343002
000290 fd 22 32 bd a8 dc dc bd 18 bc 9c be e5 9f 39 3e
       -0.0434904 -0.10784274 -0.30612254 0.18127401
0002a0 80 6c 1c 3e 94 f3 c9 bd 71 e4 41 3e 6d 14 03 bc
       0.15275764 -0.09860912 0.189348 -0.008000475
0002b0 78 5b 6e 3e 2b 11 b1 bd 1a a2 8e 3e d7 5a b4 3d
       0.2327708 -0.08645853 0.2785805 0.08806389
0002c0 88 9d 8d bb 3f c6 32 3e 72 0d 57 be 64 d8 3d be
       -0.0043217577 0.17458437 -0.21001223 -0.18539578
0002d0 31 0b 90 3d fa a6 b8 3e 78 a6 8b bd 7e 21 51 be
       0.070333846 0.36064893 -0.06818861 -0.20422933
0002e0 af 90 af 3d d9 c9 73 bb 6f 2f b4 3d fd 46 50 3b
       0.08572518 -0.0037199168 0.0879811 0.0031780594
0002f0 17 34 1e bd c9 22 64 be 6d 13 b2 bd 47 8f 1e 3d
       -0.038623895 -0.22278894 -0.086951114 0.03871086
000300 ae be 2c 3d 21 23 0b 3f e9 fb 8c 3e ee 20 06 3e
       0.042174034 0.5435048 0.27535942 0.13098499
000310 bc 36 14 3c 4b 0f 16 3e 55 4f 3d bd 69 2a 42 3e
       0.009046253 0.14654271 -0.046218235 0.1896149
000320 bd 37 8b 3c 87 ff 35 bd 82 7d ce 3e f2 b3 14 be
       0.016994352 -0.044433143 0.4033013 -0.14521769
000330 e1 20 77 be 61 e9 2c 3d 2e 92 46 3e e4 50 0d 3e
       -0.24133636 0.042214755 0.193917 0.13800389
000340 1f c1 e5 3d ab 31 71 bd 4a fb 4a bd 65 3c 04 3c
       0.112184756 -0.058885258 -0.049556054 0.00807104
000350 46 df 55 be 52 b9 f6 3d 8d 1c 07 be a6 10 ab 3d
       -0.20885953 0.12047066 -0.13194485 0.08352785
000360 1f d2 6f 3e b4 1a 9c 3d d9 f5 0f 3d 13 69 a1 bd
       0.23419999 0.07622281 0.035146568 -0.078813694
000370 04 46 88 be c6 31 15 be d1 02 de 3d fa 94 31 be
       -0.26615918 -0.14569768 0.10840381 -0.17341986
000380 12 57 83 3c 39 f2 25 bd 58 63 fa bd 15 b5 17 3e
       0.01603273 -0.040514205 -0.122259796 0.14815171
000390 9e 89 51 3e 01 a2 96 3e 61 81 82 3e 7b e4 8f 3d
       0.20462653 0.29420474 0.25489333 0.07026001
0003a0 07 b6 2a 3e ea 1e 29 be c6 56 be 3e bd fb 8a be
       0.16671 -0.16515699 0.37175578 -0.27145186
0003b0 21 53 76 3d f8 9c c8 be 3f 04 02 be 95 a6 53 be
       0.06013787 -0.39182258 -0.12696932 -0.20669015
0003c0 00 6f 43 3e c3 ea 14 3e 8e c8 7a bc ba cb 20 be
       0.19085312 0.1454268 -0.015306605 -0.15702716
0003d0 a1 56 a9 3c b0 2c 0d 3e b0 1e c1 3d 5b b4 c5 bc
       0.02067119 0.13786578 0.09429681 -0.024133852
0003e0 c6 59 52 bd 7d 5e 8b bc 27 91 0d be bc 05 8d 3d
       -0.051355146 -0.017012829 -0.13824902 0.06885859
0003f0 c6 46 07 3e 23 31 ff 3d 50 e7 08 be a1 c2 39 3d
       0.13210592 0.12460544 -0.13369489 0.04535163

fc3.bias f4 [10]
000000 43 e5 0d be 13 05 e0 be fa 1b 95 3d dc f4 47 3c
       -0.13856988 -0.4375387 0.07280727 0.012204375
000010 94 15 ff 3e c7 d7 56 be 2e b3 1d 3e 0b d4 89 bd
       0.4982115 -0.2098075 0.15400383 -0.06729897
000020 c6 a4 ae 3e 38 b5 bb be
       0.34110087 -0.36661696
